…
loading questions from data/multimodal/features/multimodal/action/multimodal_action_val_questions.pt
loading appearance feature from data/multimodal/features/multimodal/action/multimodal_action_appearance_feat.h5
loading motion feature from data/multimodal/features/multimodal/action/multimodal_action_motion_feat.h5
2022-12-21 09:41:07,419 INFO     number of val instances: 8360
2022-12-21 09:41:07,419 INFO     Create model.........
2022-12-21 09:41:10,559 INFO     num of params: 47318018
2022-12-21 09:41:10,560 INFO     HCRNNetwork(
  (feature_aggregation): FeatureAggregation(
    (q_proj): Linear(in_features=512, out_features=512, bias=False)
    (v_proj): Linear(in_features=512, out_features=512, bias=False)
    (cat): Linear(in_features=1024, out_features=512, bias=True)
    (attn): Linear(in_features=512, out_features=1, bias=True)
    (activation): ELU(alpha=1.0)
    (dropout): Dropout(p=0.15, inplace=False)
  )
  (linguistic_input_unit): InputUnitLinguistic(
    (encoder_embed): Embedding(5576, 768)
    (tanh): Tanh()
    (encoder): LSTM(768, 256, batch_first=True, bidirectional=True)
    (embedding_dropout): Dropout(p=0.15, inplace=False)
    (question_dropout): Dropout(p=0.18, inplace=False)
  )
  (visual_input_unit): InputUnitVisual(
    (clip_level_motion_cond): CRN(
      (k_objects_fusion): ModuleList(
        (0): Linear(in_features=1024, out_features=512, bias=True)
        (1): Linear(in_features=1024, out_features=512, bias=True)
        (2): Linear(in_features=1024, out_features=512, bias=True)
        (3): Linear(in_features=1024, out_features=512, bias=True)
        (4): Linear(in_features=1024, out_features=512, bias=True)
        (5): Linear(in_features=1024, out_features=512, bias=True)
        (6): Linear(in_features=1024, out_features=512, bias=True)
        (7): Linear(in_features=1024, out_features=512, bias=True)
        (8): Linear(in_features=1024, out_features=512, bias=True)
        (9): Linear(in_features=1024, out_features=512, bias=True)
        (10): Linear(in_features=1024, out_features=512, bias=True)
        (11): Linear(in_features=1024, out_features=512, bias=True)
        (12): Linear(in_features=1024, out_features=512, bias=True)
        (13): Linear(in_features=1024, out_features=512, bias=True)
        (14): Linear(in_features=1024, out_features=512, bias=True)
      )
      (activation): ELU(alpha=1.0)
    )
    (clip_level_question_cond): CRN(
      (k_objects_fusion): ModuleList(
        (0): Linear(in_features=1024, out_features=512, bias=True)
        (1): Linear(in_features=1024, out_features=512, bias=True)
        (2): Linear(in_features=1024, out_features=512, bias=True)
        (3): Linear(in_features=1024, out_features=512, bias=True)
        (4): Linear(in_features=1024, out_features=512, bias=True)
        (5): Linear(in_features=1024, out_features=512, bias=True)
        (6): Linear(in_features=1024, out_features=512, bias=True)
        (7): Linear(in_features=1024, out_features=512, bias=True)
        (8): Linear(in_features=1024, out_features=512, bias=True)
        (9): Linear(in_features=1024, out_features=512, bias=True)
        (10): Linear(in_features=1024, out_features=512, bias=True)
        (11): Linear(in_features=1024, out_features=512, bias=True)
        (12): Linear(in_features=1024, out_features=512, bias=True)
      )
      (gate_k_objects_fusion): ModuleList(
        (0): Linear(in_features=1024, out_features=512, bias=True)
        (1): Linear(in_features=1024, out_features=512, bias=True)
        (2): Linear(in_features=1024, out_features=512, bias=True)
        (3): Linear(in_features=1024, out_features=512, bias=True)
        (4): Linear(in_features=1024, out_features=512, bias=True)
        (5): Linear(in_features=1024, out_features=512, bias=True)
        (6): Linear(in_features=1024, out_features=512, bias=True)
        (7): Linear(in_features=1024, out_features=512, bias=True)
        (8): Linear(in_features=1024, out_features=512, bias=True)
        (9): Linear(in_features=1024, out_features=512, bias=True)
        (10): Linear(in_features=1024, out_features=512, bias=True)
        (11): Linear(in_features=1024, out_features=512, bias=True)
        (12): Linear(in_features=1024, out_features=512, bias=True)
      )
      (activation): ELU(alpha=1.0)
    )
    (video_level_motion_cond): CRN(
      (k_objects_fusion): ModuleList(
        (0): Linear(in_features=1024, out_features=512, bias=True)
        (1): Linear(in_features=1024, out_features=512, bias=True)
        (2): Linear(in_features=1024, out_features=512, bias=True)
        (3): Linear(in_features=1024, out_features=512, bias=True)
        (4): Linear(in_features=1024, out_features=512, bias=True)
        (5): Linear(in_features=1024, out_features=512, bias=True)
        (6): Linear(in_features=1024, out_features=512, bias=True)
      )
      (activation): ELU(alpha=1.0)
    )
    (video_level_question_cond): CRN(
      (k_objects_fusion): ModuleList(
        (0): Linear(in_features=1024, out_features=512, bias=True)
        (1): Linear(in_features=1024, out_features=512, bias=True)
        (2): Linear(in_features=1024, out_features=512, bias=True)
        (3): Linear(in_features=1024, out_features=512, bias=True)
        (4): Linear(in_features=1024, out_features=512, bias=True)
      )
      (gate_k_objects_fusion): ModuleList(
        (0): Linear(in_features=1024, out_features=512, bias=True)
        (1): Linear(in_features=1024, out_features=512, bias=True)
        (2): Linear(in_features=1024, out_features=512, bias=True)
        (3): Linear(in_features=1024, out_features=512, bias=True)
        (4): Linear(in_features=1024, out_features=512, bias=True)
      )
      (activation): ELU(alpha=1.0)
    )
    (sequence_encoder): LSTM(2048, 512, batch_first=True)
    (clip_level_motion_proj): Linear(in_features=2048, out_features=512, bias=True)
    (video_level_motion_proj): Linear(in_features=512, out_features=512, bias=True)
    (appearance_feat_proj): Linear(in_features=2048, out_features=512, bias=True)
    (question_embedding_proj): Linear(in_features=512, out_features=512, bias=True)
    (activation): ELU(alpha=1.0)
  )
  (output_unit): OutputUnitMultiChoices(
    (question_proj): Linear(in_features=512, out_features=512, bias=True)
    (ans_candidates_proj): Linear(in_features=512, out_features=512, bias=True)
    (classifier): Sequential(
      (0): Dropout(p=0.15, inplace=False)
      (1): Linear(in_features=2048, out_features=512, bias=True)
      (2): ELU(alpha=1.0)
      (3): BatchNorm1d(512, eps=1e-05, momentum=0.1, affine=True, track_running_stats=True)
      (4): Dropout(p=0.15, inplace=False)
      (5): Linear(in_features=512, out_features=1, bias=True)
    )
  )
)
2022-12-21 09:41:10,560 INFO     load glove vectors
2022-12-21 09:41:10,565 INFO     Start training........
2022-12-21 09:41:10,565 INFO     >>>>>> epoch [1m[32m0[0m <<<<<<
Progress = [1m[32m0.000[0m   ce_loss = [1m[34m105.8228[0m   avg_loss = [1m[31m105.8228[0m    train_acc = [1m[34m0.2500[0m    avg_acc = [1m[31m0.25
…
